…
el_best.pth', resume=False, save_dir='/root/autodl-tmp/uformer512_log/log', save_images=False, token_mlp='leff', token_projection='linear', train_dir='/root/autodl-tmp/RICE1/train', train_ps=512, train_workers=8, val_dir='/root/autodl-tmp/RICE1_seed/val', vit_depth=12, vit_dim=256, vit_mlp_dim=512, vit_nheads=8, vit_patch_size=16, vit_share=False, warmup=True, warmup_epochs=3, weight_decay=0.02, win_size=8)
Uformer_uniformer(
  embed_dim=16, token_projection=linear, token_mlp=leff,win_size=8
  (pos_drop): Dropout(p=0.0, inplace=False)
  (input_proj): InputProj(
    (proj): Sequential(
      (0): Conv2d(3, 16, kernel_size=(3, 3), stride=(1, 1), padding=(1, 1))
      (1): LeakyReLU(negative_slope=0.01, inplace=True)
    )
  )
  (output_proj): OutputProj(
    (proj): Sequential(
      (0): Conv2d(32, 3, kernel_size=(3, 3), stride=(1, 1), padding=(1, 1))
    )
  )
  (encoderlayer_0): BasicUniformerLayer(
    dim=16, input_resolution=(512, 512), depth=2
    (blocks): ModuleList(
      (0): LeWinConvBlock(
        dim=16, input_resolution=(512, 512), num_heads=1, win_size=8, shift_size=0, mlp_ratio=4.0
        (norm1): LayerNorm((16,), eps=1e-05, elementwise_affine=True)
        (conv1): Conv2d(16, 16, kernel_size=(1, 1), stride=(1, 1))
        (conv2): Conv2d(16, 16, kernel_size=(1, 1), stride=(1, 1))
        (attn): Conv2d(16, 16, kernel_size=(3, 3), stride=(1, 1), padding=(1, 1), groups=16)
        (drop_path): Identity()
        (norm2): LayerNorm((16,), eps=1e-05, elementwise_affine=True)
        (mlp): LeFF(
          (linear1): Sequential(
            (0): Linear(in_features=16, out_features=64, bias=True)
            (1): GELU()
          )
          (dwconv): Sequential(
            (0): Conv2d(64, 64, kernel_size=(3, 3), stride=(1, 1), padding=(1, 1), groups=64)
            (1): GELU()
          )
          (linear2): Sequential(
            (0): Linear(in_features=64, out_features=16, bias=True)
          )
        )
      )
      (1): LeWinConvBlock(
        dim=16, input_resolution=(512, 512), num_heads=1, win_size=8, shift_size=0, mlp_ratio=4.0
        (norm1): LayerNorm((16,), eps=1e-05, elementwise_affine=True)
        (conv1): Conv2d(16, 16, kernel_size=(1, 1), stride=(1, 1))
        (conv2): Conv2d(16, 16, kernel_size=(1, 1), stride=(1, 1))
        (attn): Conv2d(16, 16, kernel_size=(3, 3), stride=(1, 1), padding=(1, 1), groups=16)
        (drop_path): DropPath()
        (norm2): LayerNorm((16,), eps=1e-05, elementwise_affine=True)
        (mlp): LeFF(
          (linear1): Sequential(
            (0): Linear(in_features=16, out_features=64, bias=True)
            (1): GELU()
          )
          (dwconv): Sequential(
            (0): Conv2d(64, 64, kernel_size=(3, 3), stride=(1, 1), padding=(1, 1), groups=64)
            (1): GELU()
          )
          (linear2): Sequential(
            (0): Linear(in_features=64, out_features=16, bias=True)
          )
        )
      )
    )
  )
  (dowsample_0): Downsample(
    (conv): Sequential(
      (0): Conv2d(16, 32, kernel_size=(4, 4), stride=(2, 2), padding=(1, 1))
    )
  )
  (encoderlayer_1): BasicUniformerLayer_half(
    dim=32, input_resolution=(256, 256), depth=2
    (blocks): ModuleList(
      (0): LeWinConvBlock(
        dim=32, input_resolution=(256, 256), num_heads=2, win_size=8, shift_size=0, mlp_ratio=4.0
        (norm1): LayerNorm((32,), eps=1e-05, elementwise_affine=True)
        (conv1): Conv2d(32, 32, kernel_size=(1, 1), stride=(1, 1))
        (conv2): Conv2d(32, 32, kernel_size=(1, 1), stride=(1, 1))
        (attn): Conv2d(32, 32, kernel_size=(3, 3), stride=(1, 1), padding=(1, 1), groups=32)
        (drop_path): DropPath()
        (norm2): LayerNorm((32,), eps=1e-05, elementwise_affine=True)
        (mlp): LeFF(
          (linear1): Sequential(
            (0): Linear(in_features=32, out_features=128, bias=True)
            (1): GELU()
          )
          (dwconv): Sequential(
            (0): Conv2d(128, 128, kernel_size=(3, 3), stride=(1, 1), padding=(1, 1), groups=128)
            (1): GELU()
          )
          (linear2): Sequential(
            (0): Linear(in_features=128, out_features=32, bias=True)
          )
        )
      )
      (1): LeWinTransformerBlock(
        dim=32, input_resolution=(256, 256), num_heads=2, win_size=8, shift_size=0, mlp_ratio=4.0
        (norm1): LayerNorm((32,), eps=1e-05, elementwise_affine=True)
        (attn): WindowAttention_lepe(
          (qkv): LinearProjection(
            (to_q): Linear(in_features=32, out_features=32, bias=True)
            (to_kv): Linear(in_features=32, out_features=64, bias=True)
          )
          (attn_drop): Dropout(p=0.0, inplace=False)
          (proj): Linear(in_features=32, out_features=32, bias=True)
          (se_layer): Identity()
          (proj_drop): Dropout(p=0.0, inplace=False)
          (softmax): Softmax(dim=-1)
          (get_v): Conv2d(32, 32, kernel_size=(3, 3), stride=(1, 1), padding=(1, 1), groups=32)
        )
        (drop_path): DropPath()
        (norm2): LayerNorm((32,), eps=1e-05, elementwise_affine=True)
        (mlp): LeFF(
          (linear1): Sequential(
            (0): Linear(in_features=32, out_features=128, bias=True)
            (1): GELU()
          )
          (dwconv): Sequential(
            (0): Conv2d(128, 128, kernel_size=(3, 3), stride=(1, 1), padding=(1, 1), groups=128)
            (1): GELU()
          )
          (linear2): Sequential(
            (0): Linear(in_features=128, out_features=32, bias=True)
          )
        )
      )
    )
  )
  (dowsample_1): Downsample(
    (conv): Sequential(
      (0): Conv2d(32, 64, kernel_size=(4, 4), stride=(2, 2), padding=(1, 1))
    )
  )
  (encoderlayer_2): BasicUformerLayer(
    dim=64, input_resolution=(128, 128), depth=2
    (blocks): ModuleList(
      (0): LeWinTransformerBlock(
        dim=64, input_resolution=(128, 128), num_heads=4, win_size=8, shift_size=0, mlp_ratio=4.0
        (norm1): LayerNorm((64,), eps=1e-05, elementwise_affine=True)
        (attn): WindowAttention_lepe(
          (qkv): LinearProjection(
            (to_q): Linear(in_features=64, out_features=64, bias=True)
            (to_kv): Linear(in_features=64, out_features=128, bias=True)
          )
          (attn_drop): Dropout(p=0.0, inplace=False)
          (proj): Linear(in_features=64, out_features=64, bias=True)
          (se_layer): Identity()
          (proj_drop): Dropout(p=0.0, inplace=False)
          (softmax): Softmax(dim=-1)
          (get_v): Conv2d(64, 64, kernel_size=(3, 3), stride=(1, 1), padding=(1, 1), groups=64)
        )
        (drop_path): DropPath()
        (norm2): LayerNorm((64,), eps=1e-05, elementwise_affine=True)
        (mlp): LeFF(
          (linear1): Sequential(
            (0): Linear(in_features=64, out_features=256, bias=True)
            (1): GELU()
          )
          (dwconv): Sequential(
            (0): Conv2d(256, 256, kernel_size=(3, 3), stride=(1, 1), padding=(1, 1), groups=256)
            (1): GELU()
          )
          (linear2): Sequential(
            (0): Linear(in_features=256, out_features=64, bias=True)
          )
        )
      )
      (1): LeWinTransformerBlock(
        dim=64, input_resolution=(128, 128), num_heads=4, win_size=8, shift_size=0, mlp_ratio=4.0
        (norm1): LayerNorm((64,), eps=1e-05, elementwise_affine=True)
        (attn): WindowAttention_lepe(
          (qkv): LinearProjection(
            (to_q): Linear(in_features=64, out_features=64, bias=True)
            (to_kv): Linear(in_features=64, out_features=128, bias=True)
          )
          (attn_drop): Dropout(p=0.0, inplace=False)
          (proj): Linear(in_features=64, out_features=64, bias=True)
          (se_layer): Identity()
          (proj_drop): Dropout(p=0.0, inplace=False)
          (softmax): Softmax(dim=-1)
          (get_v): Conv2d(64, 64, kernel_size=(3, 3), stride=(1, 1), padding=(1, 1), groups=64)
        )
        (drop_path): DropPath()
        (norm2): LayerNorm((64,), eps=1e-05, elementwise_affine=True)
        (mlp): LeFF(
          (linear1): Sequential(
            (0): Linear(in_features=64, out_features=256, bias=True)
            (1): GELU()
          )
          (dwconv): Sequential(
            (0): Conv2d(256, 256, kernel_size=(3, 3), stride=(1, 1), padding=(1, 1), groups=256)
            (1): GELU()
          )
          (linear2): Sequential(
            (0): Linear(in_features=256, out_features=64, bias=True)
          )
        )
      )
    )
  )
  (dowsample_2): Downsample(
    (conv): Sequential(
      (0): Conv2d(64, 128, kernel_size=(4, 4), stride=(2, 2), padding=(1, 1))
    )
  )
  (encoderlayer_3): BasicUformerLayer(
    dim=128, input_resolution=(64, 64), depth=2
    (blocks): ModuleList(
      (0): LeWinTransformerBlock(
        dim=128, input_resolution=(64, 64), num_heads=8, win_size=8, shift_size=0, mlp_ratio=4.0
        (norm1): LayerNorm((128,), eps=1e-05, elementwise_affine=True)
        (attn): WindowAttention_lepe(
          (qkv): LinearProjection(
            (to_q): Linear(in_features=128, out_features=128, bias=True)
            (to_kv): Linear(in_features=128, out_features=256, bias=True)
          )
          (attn_drop): Dropout(p=0.0, inplace=False)
          (proj): Linear(in_features=128, out_features=128, bias=True)
          (se_layer): Identity()
          (proj_drop): Dropout(p=0.0, inplace=False)
          (softmax): Softmax(dim=-1)
          (get_v): Conv2d(128, 128, kernel_size=(3, 3), stride=(1, 1), padding=(1, 1), groups=128)
        )
        (drop_path): DropPath()
        (norm2): LayerNorm((128,), eps=1e-05, elementwise_affine=True)
        (mlp): LeFF(
          (linear1): Sequential(
            (0): Linear(in_features=128, out_features=512, bias=True)
            (1): GELU()
          )
          (dwconv): Sequential(
            (0): Conv2d(512, 512, kernel_size=(3, 3), stride=(1, 1), padding=(1, 1), groups=512)
            (1): GELU()
          )
          (linear2): Sequential(
            (0): Linear(in_features=512, out_features=128, bias=True)
          )
        )
      )
      (1): LeWinTransformerBlock(
        dim=128, input_resolution=(64, 64), num_heads=8, win_size=8, shift_size=0, mlp_ratio=4.0
        (norm1): LayerNorm((128,), eps=1e-05, elementwise_affine=True)
        (attn): WindowAttention_lepe(
          (qkv): LinearProjection(
            (to_q): Linear(in_features=128, out_features=128, bias=True)
            (to_kv): Linear(in_features=128, out_features=256, bias=True)
          )
          (attn_drop): Dropout(p=0.0, inplace=False)
          (proj): Linear(in_features=128, out_features=128, bias=True)
          (se_layer): Identity()
          (proj_drop): Dropout(p=0.0, inplace=False)
          (softmax): Softmax(dim=-1)
          (get_v): Conv2d(128, 128, kernel_size=(3, 3), stride=(1, 1), padding=(1, 1), groups=128)
        )
        (drop_path): DropPath()
        (norm2): LayerNorm((128,), eps=1e-05, elementwise_affine=True)
        (mlp): LeFF(
          (linear1): Sequential(
            (0): Linear(in_features=128, out_features=512, bias=True)
            (1): GELU()
          )
          (dwconv): Sequential(
            (0): Conv2d(512, 512, kernel_size=(3, 3), stride=(1, 1), padding=(1, 1), groups=512)
            (1): GELU()
          )
          (linear2): Sequential(
            (0): Linear(in_features=512, out_features=128, bias=True)
          )
        )
      )
    )
  )
  (dowsample_3): Downsample(
    (conv): Sequential(
      (0): Conv2d(128, 256, kernel_size=(4, 4), stride=(2, 2), padding=(1, 1))
    )
  )
  (conv): BasicUformerLayer(
    dim=256, input_resolution=(32, 32), depth=2
    (blocks): ModuleList(
      (0): LeWinTransformerBlock(
        dim=256, input_resolution=(32, 32), num_heads=16, win_size=8, shift_size=0, mlp_ratio=4.0
        (norm1): LayerNorm((256,), eps=1e-05, elementwise_affine=True)
        (attn): WindowAttention_lepe(
          (qkv): LinearProjection(
            (to_q): Linear(in_features=256, out_features=256, bias=True)
            (to_kv): Linear(in_features=256, out_features=512, bias=True)
          )
          (attn_drop): Dropout(p=0.0, inplace=False)
          (proj): Linear(in_features=256, out_features=256, bias=True)
          (se_layer): Identity()
          (proj_drop): Dropout(p=0.0, inplace=False)
          (softmax): Softmax(dim=-1)
          (get_v): Conv2d(256, 256, kernel_size=(3, 3), stride=(1, 1), padding=(1, 1), groups=256)
        )
        (drop_path): DropPath()
        (norm2): LayerNorm((256,), eps=1e-05, elementwise_affine=True)
        (mlp): LeFF(
          (linear1): Sequential(
            (0): Linear(in_features=256, out_features=1024, bias=True)
            (1): GELU()
          )
          (dwconv): Sequential(
            (0): Conv2d(1024, 1024, kernel_size=(3, 3), stride=(1, 1), padding=(1, 1), groups=1024)
            (1): GELU()
          )
          (linear2): Sequential(
            (0): Linear(in_features=1024, out_features=256, bias=True)
          )
        )
      )
      (1): LeWinTransformerBlock(
        dim=256, input_resolution=(32, 32), num_heads=16, win_size=8, shift_size=0, mlp_ratio=4.0
        (norm1): LayerNorm((256,), eps=1e-05, elementwise_affine=True)
        (attn): WindowAttention_lepe(
          (qkv): LinearProjection(
            (to_q): Linear(in_features=256, out_features=256, bias=True)
            (to_kv): Linear(in_features=256, out_features=512, bias=True)
          )
          (attn_drop): Dropout(p=0.0, inplace=False)
          (proj): Linear(in_features=256, out_features=256, bias=True)
          (se_layer): Identity()
          (proj_drop): Dropout(p=0.0, inplace=False)
          (softmax): Softmax(dim=-1)
          (get_v): Conv2d(256, 256, kernel_size=(3, 3), stride=(1, 1), padding=(1, 1), groups=256)
        )
        (drop_path): DropPath()
        (norm2): LayerNorm((256,), eps=1e-05, elementwise_affine=True)
        (mlp): LeFF(
          (linear1): Sequential(
            (0): Linear(in_features=256, out_features=1024, bias=True)
            (1): GELU()
          )
          (dwconv): Sequential(
            (0): Conv2d(1024, 1024, kernel_size=(3, 3), stride=(1, 1), padding=(1, 1), groups=1024)
            (1): GELU()
          )
          (linear2): Sequential(
            (0): Linear(in_features=1024, out_features=256, bias=True)
          )
        )
      )
    )
  )
  (upsample_0): Upsample(
    (deconv): Sequential(
      (0): ConvTranspose2d(256, 128, kernel_size=(2, 2), stride=(2, 2))
    )
  )
  (decoderlayer_0): BasicUformerLayer(
    dim=256, input_resolution=(64, 64), depth=2
    (blocks): ModuleList(
      (0): LeWinTransformerBlock(
        dim=256, input_resolution=(64, 64), num_heads=16, win_size=8, shift_size=0, mlp_ratio=4.0
        (norm1): LayerNorm((256,), eps=1e-05, elementwise_affine=True)
        (attn): WindowAttention_lepe(
          (qkv): LinearProjection(
            (to_q): Linear(in_features=256, out_features=256, bias=True)
            (to_kv): Linear(in_features=256, out_features=512, bias=True)
          )
          (attn_drop): Dropout(p=0.0, inplace=False)
          (proj): Linear(in_features=256, out_features=256, bias=True)
          (se_layer): Identity()
          (proj_drop): Dropout(p=0.0, inplace=False)
          (softmax): Softmax(dim=-1)
          (get_v): Conv2d(256, 256, kernel_size=(3, 3), stride=(1, 1), padding=(1, 1), groups=256)
        )
        (drop_path): DropPath()
        (norm2): LayerNorm((256,), eps=1e-05, elementwise_affine=True)
        (mlp): LeFF(
          (linear1): Sequential(
            (0): Linear(in_features=256, out_features=1024, bias=True)
            (1): GELU()
          )
          (dwconv): Sequential(
            (0): Conv2d(1024, 1024, kernel_size=(3, 3), stride=(1, 1), padding=(1, 1), groups=1024)
            (1): GELU()
          )
          (linear2): Sequential(
            (0): Linear(in_features=1024, out_features=256, bias=True)
          )
        )
      )
      (1): LeWinTransformerBlock(
        dim=256, input_resolution=(64, 64), num_heads=16, win_size=8, shift_size=0, mlp_ratio=4.0
        (norm1): LayerNorm((256,), eps=1e-05, elementwise_affine=True)
        (attn): WindowAttention_lepe(
          (qkv): LinearProjection(
            (to_q): Linear(in_features=256, out_features=256, bias=True)
            (to_kv): Linear(in_features=256, out_features=512, bias=True)
          )
          (attn_drop): Dropout(p=0.0, inplace=False)
          (proj): Linear(in_features=256, out_features=256, bias=True)
          (se_layer): Identity()
          (proj_drop): Dropout(p=0.0, inplace=False)
          (softmax): Softmax(dim=-1)
          (get_v): Conv2d(256, 256, kernel_size=(3, 3), stride=(1, 1), padding=(1, 1), groups=256)
        )
        (drop_path): DropPath()
        (norm2): LayerNorm((256,), eps=1e-05, elementwise_affine=True)
        (mlp): LeFF(
          (linear1): Sequential(
            (0): Linear(in_features=256, out_features=1024, bias=True)
            (1): GELU()
          )
          (dwconv): Sequential(
            (0): Conv2d(1024, 1024, kernel_size=(3, 3), stride=(1, 1), padding=(1, 1), groups=1024)
            (1): GELU()
          )
          (linear2): Sequential(
            (0): Linear(in_features=1024, out_features=256, bias=True)
          )
        )
      )
    )
  )
  (upsample_1): Upsample(
    (deconv): Sequential(
      (0): ConvTranspose2d(256, 64, kernel_size=(2, 2), stride=(2, 2))
    )
  )
  (decoderlayer_1): BasicUformerLayer(
    dim=128, input_resolution=(128, 128), depth=2
    (blocks): ModuleList(
      (0): LeWinTransformerBlock(
        dim=128, input_resolution=(128, 128), num_heads=8, win_size=8, shift_size=0, mlp_ratio=4.0
        (norm1): LayerNorm((128,), eps=1e-05, elementwise_affine=True)
        (attn): WindowAttention_lepe(
          (qkv): LinearProjection(
            (to_q): Linear(in_features=128, out_features=128, bias=True)
            (to_kv): Linear(in_features=128, out_features=256, bias=True)
          )
          (attn_drop): Dropout(p=0.0, inplace=False)
          (proj): Linear(in_features=128, out_features=128, bias=True)
          (se_layer): Identity()
          (proj_drop): Dropout(p=0.0, inplace=False)
          (softmax): Softmax(dim=-1)
          (get_v): Conv2d(128, 128, kernel_size=(3, 3), stride=(1, 1), padding=(1, 1), groups=128)
        )
        (drop_path): DropPath()
        (norm2): LayerNorm((128,), eps=1e-05, elementwise_affine=True)
        (mlp): LeFF(
          (linear1): Sequential(
            (0): Linear(in_features=128, out_features=512, bias=True)
            (1): GELU()
          )
          (dwconv): Sequential(
            (0): Conv2d(512, 512, kernel_size=(3, 3), stride=(1, 1), padding=(1, 1), groups=512)
            (1): GELU()
          )
          (linear2): Sequential(
            (0): Linear(in_features=512, out_features=128, bias=True)
          )
        )
      )
      (1): LeWinTransformerBlock(
        dim=128, input_resolution=(128, 128), num_heads=8, win_size=8, shift_size=0, mlp_ratio=4.0
        (norm1): LayerNorm((128,), eps=1e-05, elementwise_affine=True)
        (attn): WindowAttention_lepe(
          (qkv): LinearProjection(
            (to_q): Linear(in_features=128, out_features=128, bias=True)
            (to_kv): Linear(in_features=128, out_features=256, bias=True)
          )
          (attn_drop): Dropout(p=0.0, inplace=False)
          (proj): Linear(in_features=128, out_features=128, bias=True)
          (se_layer): Identity()
          (proj_drop): Dropout(p=0.0, inplace=False)
          (softmax): Softmax(dim=-1)
          (get_v): Conv2d(128, 128, kernel_size=(3, 3), stride=(1, 1), padding=(1, 1), groups=128)
        )
        (drop_path): DropPath()
        (norm2): LayerNorm((128,), eps=1e-05, elementwise_affine=True)
        (mlp): LeFF(
          (linear1): Sequential(
            (0): Linear(in_features=128, out_features=512, bias=True)
            (1): GELU()
          )
          (dwconv): Sequential(
            (0): Conv2d(512, 512, kernel_size=(3, 3), stride=(1, 1), padding=(1, 1), groups=512)
            (1): GELU()
          )
          (linear2): Sequential(
            (0): Linear(in_features=512, out_features=128, bias=True)
          )
        )
      )
    )
  )
  (upsample_2): Upsample(
    (deconv): Sequential(
      (0): ConvTranspose2d(128, 32, kernel_size=(2, 2), stride=(2, 2))
    )
  )
  (decoderlayer_2): BasicUformerLayer(
    dim=64, input_resolution=(256, 256), depth=2
    (blocks): ModuleList(
      (0): LeWinTransformerBlock(
        dim=64, input_resolution=(256, 256), num_heads=4, win_size=8, shift_size=0, mlp_ratio=4.0
        (norm1): LayerNorm((64,), eps=1e-05, elementwise_affine=True)
        (attn): WindowAttention_lepe(
          (qkv): LinearProjection(
            (to_q): Linear(in_features=64, out_features=64, bias=True)
            (to_kv): Linear(in_features=64, out_features=128, bias=True)
          )
          (attn_drop): Dropout(p=0.0, inplace=False)
          (proj): Linear(in_features=64, out_features=64, bias=True)
          (se_layer): Identity()
          (proj_drop): Dropout(p=0.0, inplace=False)
          (softmax): Softmax(dim=-1)
          (get_v): Conv2d(64, 64, kernel_size=(3, 3), stride=(1, 1), padding=(1, 1), groups=64)
        )
        (drop_path): DropPath()
        (norm2): LayerNorm((64,), eps=1e-05, elementwise_affine=True)
        (mlp): LeFF(
          (linear1): Sequential(
            (0): Linear(in_features=64, out_features=256, bias=True)
            (1): GELU()
          )
          (dwconv): Sequential(
            (0): Conv2d(256, 256, kernel_size=(3, 3), stride=(1, 1), padding=(1, 1), groups=256)
            (1): GELU()
          )
          (linear2): Sequential(
            (0): Linear(in_features=256, out_features=64, bias=True)
          )
        )
      )
      (1): LeWinTransformerBlock(
        dim=64, input_resolution=(256, 256), num_heads=4, win_size=8, shift_size=0, mlp_ratio=4.0
        (norm1): LayerNorm((64,), eps=1e-05, elementwise_affine=True)
        (attn): WindowAttention_lepe(
          (qkv): LinearProjection(
            (to_q): Linear(in_features=64, out_features=64, bias=True)
            (to_kv): Linear(in_features=64, out_features=128, bias=True)
          )
          (attn_drop): Dropout(p=0.0, inplace=False)
          (proj): Linear(in_features=64, out_features=64, bias=True)
          (se_layer): Identity()
          (proj_drop): Dropout(p=0.0, inplace=False)
          (softmax): Softmax(dim=-1)
          (get_v): Conv2d(64, 64, kernel_size=(3, 3), stride=(1, 1), padding=(1, 1), groups=64)
        )
        (drop_path): DropPath()
        (norm2): LayerNorm((64,), eps=1e-05, elementwise_affine=True)
        (mlp): LeFF(
          (linear1): Sequential(
            (0): Linear(in_features=64, out_features=256, bias=True)
            (1): GELU()
          )
          (dwconv): Sequential(
            (0): Conv2d(256, 256, kernel_size=(3, 3), stride=(1, 1), padding=(1, 1), groups=256)
            (1): GELU()
          )
          (linear2): Sequential(
            (0): Linear(in_features=256, out_features=64, bias=True)
          )
        )
      )
    )
  )
  (upsample_3): Upsample(
    (deconv): Sequential(
      (0): ConvTranspose2d(64, 16, kernel_size=(2, 2), stride=(2, 2))
    )
  )
  (decoderlayer_3): BasicUformerLayer(
    dim=32, input_resolution=(512, 512), depth=2
    (blocks): ModuleList(
      (0): LeWinTransformerBlock(
        dim=32, input_resolution=(512, 512), num_heads=2, win_size=8, shift_size=0, mlp_ratio=4.0
        (norm1): LayerNorm((32,), eps=1e-05, elementwise_affine=True)
        (attn): WindowAttention_lepe(
          (qkv): LinearProjection(
            (to_q): Linear(in_features=32, out_features=32, bias=True)
            (to_kv): Linear(in_features=32, out_features=64, bias=True)
          )
          (attn_drop): Dropout(p=0.0, inplace=False)
          (proj): Linear(in_features=32, out_features=32, bias=True)
          (se_layer): Identity()
          (proj_drop): Dropout(p=0.0, inplace=False)
          (softmax): Softmax(dim=-1)
          (get_v): Conv2d(32, 32, kernel_size=(3, 3), stride=(1, 1), padding=(1, 1), groups=32)
        )
        (drop_path): DropPath()
        (norm2): LayerNorm((32,), eps=1e-05, elementwise_affine=True)
        (mlp): LeFF(
          (linear1): Sequential(
            (0): Linear(in_features=32, out_features=128, bias=True)
            (1): GELU()
          )
          (dwconv): Sequential(
            (0): Conv2d(128, 128, kernel_size=(3, 3), stride=(1, 1), padding=(1, 1), groups=128)
            (1): GELU()
          )
          (linear2): Sequential(
            (0): Linear(in_features=128, out_features=32, bias=True)
          )
        )
      )
      (1): LeWinTransformerBlock(
        dim=32, input_resolution=(512, 512), num_heads=2, win_size=8, shift_size=0, mlp_ratio=4.0
        (norm1): LayerNorm((32,), eps=1e-05, elementwise_affine=True)
        (attn): WindowAttention_lepe(
          (qkv): LinearProjection(
            (to_q): Linear(in_features=32, out_features=32, bias=True)
            (to_kv): Linear(in_features=32, out_features=64, bias=True)
          )
          (attn_drop): Dropout(p=0.0, inplace=False)
          (proj): Linear(in_features=32, out_features=32, bias=True)
          (se_layer): Identity()
          (proj_drop): Dropout(p=0.0, inplace=False)
          (softmax): Softmax(dim=-1)
          (get_v): Conv2d(32, 32, kernel_size=(3, 3), stride=(1, 1), padding=(1, 1), groups=32)
        )
        (drop_path): Identity()
        (norm2): LayerNorm((32,), eps=1e-05, elementwise_affine=True)
        (mlp): LeFF(
          (linear1): Sequential(
            (0): Linear(in_features=32, out_features=128, bias=True)
            (1): GELU()
          )
          (dwconv): Sequential(
            (0): Conv2d(128, 128, kernel_size=(3, 3), stride=(1, 1), padding=(1, 1), groups=128)
            (1): GELU()
          )
          (linear2): Sequential(
            (0): Linear(in_features=128, out_features=32, bias=True)
          )
        )
      )
    )
  )
)
[Ep 1 it 39	 PSNR SIDD: 19.1422	] ----  [best_Ep_SIDD 1 best_it_SIDD 39 Best_PSNR_SIDD 19.1422] 
[Ep 1 it 79	 PSNR SIDD: 19.8618	] ----  [best_Ep_SIDD 1 best_it_SIDD 79 Best_PSNR_SIDD 19.8618] 
[Ep 1 it 119	 PSNR SIDD: 20.6145	] ----  [best_Ep_SIDD 1 best_it_SIDD 119 Best_PSNR_SIDD 20.6145] 
[Ep 1 it 159	 PSNR SIDD: 20.0354	] ----  [best_Ep_SIDD 1 best_it_SIDD 119 Best_PSNR_SIDD 20.6145] 
…
